task_1a_trained_model.pth (torch, 61123 bytes, 7 tensors)

weight f4 [128, 8]
00000000: 347e 04bf a074 80bd 39af 803e c914 50be
00000010: 8745 8cbc d4cf 0fbf 30a0 213e 8471 e83c
00000020: 7787 bfbe 7cb7 47bc 1614 37bc fe07 fbbd
00000030: 3bba 8abd ed60 853e baa7 9b3d a9c5 423e
00000040: 97a7 983d 0660 403d a622 4d3e 7f59 cebe
00000050: cd56 d9bb a712 6e3e 1d89 04be 8f08 f1bd
00000060: a3ee 34bf cefd 373d 03d8 5b3d ea92 b53c
00000070: f34a 783d 756b 483e 9e8e 993d 162f 623e
00000080: 9664 d7be 7679 b6bd 15fe be3d 61ee dbbd
00000090: a72f 3f3c 5d48 65bd c80e 41bd 1855 143d
000000a0: 8248 26bf 480a 20be 219a 4c3c c6be cc3d
000000b0: faed bbbc 932e 1f3e 92f1 f5bc e8d4 763d
000000c0: 565a c93e b37e 5d3e 389f f3bc 1705 a23d
000000d0: 6b38 433d 9f9f 0abb fc84 6ebd cad0 5dbd
000000e0: df42 8b3c 4bdf 063f 760a e4bc 62be d33c
000000f0: 3b85 1d3c c15d 8b3b 8a4a 49bd 7050 903b
00000100: 0f8d 0fbc f02e 39be 8cd7 fcbd 5c37 263d
00000110: 10bc a5be 8ac7 a13e ef9e 2a3e 2ac7 383d
00000120: 7dd1 92be 2cb9 f53d adfc b4bd e476 5fbe
00000130: 2dcc 23be b763 48be 35a4 5fbe 6cdf d33e
00000140: d8fb 6cbe 5155 30be dc5f d13d d619 abbe
00000150: 7eeb 293e 66ce 90be 88cf cdbd 9851 413d
00000160: a2fb c43d b240 c0be 5713 d1be aa8b 883e
00000170: 7cfe c83b f3b9 3dbe 02a6 a63d 1cfc b2bd
00000180: 5f88 273e 0f63 2bbe ccde c43c ce13 b0be
00000190: 5cc2 efbe e1f2 81be 804e e43e 79a6 363e
000001a0: 12bd 04be 8156 eb3e 197e 05be 3e94 fabe
000001b0: d55f 19be f26a 853e 770e f9bd 8c01 af3d
000001c0: ccca 95bd 66e6 5a3e 91fe 183e d8dc adbc
000001d0: 866f 083e 0778 e2be 5d04 6b3d 1060 2a3e
000001e0: 6354 dbbe 5b84 49be 285b 603e a3fb 6dbe
000001f0: 6f86 3fbe d005 7cbd 75b0 9f3d 9468 acbe
00000200: 6ce8 d13d eb58 e13c 6c3a 3abe cb1a f8bd
00000210: 1ba1 93be 688e e53d 6057 a5be c92b c83e
00000220: 7a22 e83e b2b9 833d 4e9d a43e 9e2d c1bd
00000230: f2a6 42be 8ab4 51be d0c2 f43d 72ac 703d
00000240: 2cb4 27be cb3c eabe b68b b8be 1a48 95be
00000250: a1b7 863e a54c 78be 0f9f 013e d2cc c63e
00000260: ae05 c3bb 66c3 f33e 7610 f9bb ac6a 82bc
00000270: 20d0 4a3c d29b c4bb 3ab0 c8bc 6e7b 913b
00000280: ced7 f43d c097 abbd 9031 11be 9e22 7fbe
00000290: 333f fb3d 1b02 533e d90f 963e eec4 34be
000002a0: 1a5a 88be 357b 103e b7c4 943e ae92 ee3c
000002b0: 3a29 ea3b a08c a8be dce9 933d c56b 1abd
000002c0: 3a9d 48be fa4e 34bd 9bfb b33e a6c7 5fbe
000002d0: f864 9dbe 73e3 0ebf adb2 973e cdc1 b5bd
000002e0: 30fc fbbe 893f 8dbe df79 cabd 421e 89bd
000002f0: 4ad4 e6bc e6e1 3c3e 9665 7f3d 4878 9b3e
00000300: 6080 4c3c c000 023f 5778 41bc 0571 54bd
00000310: e927 303b 9b5d 8a3c 039c de3c ded4 8c3b
00000320: 7906 b8be edca cebe 5ebc d3be d845 923e
00000330: cf9a c6bc c5e7 0abe 940b 7e3d 109d 8abc
00000340: be8a b6be 6dff 323d d016 5dbd b248 51bd
00000350: 13f8 21be 4800 293e 4471 70be b9a1 71be
00000360: 107d 09bf b60d ea3c 49b1 eb3d ff73 863d
00000370: 1362 a83d cad1 84bd 9945 023e 8d54 463d
00000380: 0dcb cabe 8816 2cbe adbc 34be 52d7 e93d
00000390: ec61 193e 6103 ec3d 98a1 8ebe a158 f5bb
000003a0: 670e 4bbf a0c9 39be b088 04bd ea86 b73c
000003b0: 55cc 19bc dc21 af3e 4641 c3bc 1488 003d
000003c0: bc98 8bbb 5d7a 983e 78d1 93be a676 b2bc
000003d0: 590f 483e 102f 4cbe a72f 32be 0c19 933d
000003e0: 80c2 cebe 12e9 c7be 8d5c d4bc e4a2 f13d
000003f0: 1a52 de3d c0f4 6bbe aabd f13c 0a50 8cbb
-0.5175507 -0.062722445 0.25133684 -0.20320429 -0.017122997 -0.56176496 0.15783763 0.028374441
-0.3740804 -0.012189742 -0.011174222 -0.12257384 -0.06773802 0.2605051 0.07600351 0.19020714
0.0745384 0.046966575 0.20032749 -0.40302655 -0.006632662 0.23249303 -0.1294293 -0.117692105
-0.7067663 0.04491978 0.0536728 0.02216478 0.060618352 0.19572242 0.07497905 0.22088274
-0.42068928 -0.089098856 0.09325806 -0.107388265 0.011669076 -0.055977214 -0.047133237 0.036213964
-0.6495439 -0.15628922 0.012487919 0.09997325 -0.022940625 0.1554511 -0.030022416 0.060261637
0.39326733 0.21630363 -0.029739007 0.07911127 0.047661226 -0.002115227 -0.058232293 -0.054154195
0.01699966 0.5268447 -0.02783702 0.025847618 0.009614284 0.0042531197 -0.04914335 0.00440412
-0.008761658 -0.18084311 -0.123458 0.04058014 -0.32370043 0.3159755 0.16662191 0.045111813
-0.28675452 0.11998209 -0.088372566 -0.21822697 -0.15995856 -0.19569288 -0.21839984 0.41381395
-0.23142946 -0.17220046 0.10223362 -0.3341815 0.1659374 -0.2828247 -0.10049349 0.047196954
0.09618308 -0.3754936 -0.40835068 0.26669055 0.0061338525 -0.18527965 0.08137132 -0.08739492
0.16360615 -0.16737007 0.02403202 -0.3439011 -0.46827972 -0.25380614 0.4459114 0.17836942
-0.1296275 0.45964435 -0.13036384 -0.48941225 -0.14977963 0.26058155 -0.12160962 0.08545217
-0.07314071 0.21376953 0.1494086 -0.02122347 0.13323793 -0.442322 0.057377208 0.16638207
-0.4283782 -0.19679396 0.21909773 -0.23240523 -0.18703626 -0.06152898 0.077973284 -0.33673537
0.10249409 0.02750822 -0.18186349 -0.12114485 -0.2883385 0.112088025 -0.32293224 0.39095905
0.45338804 0.06431903 0.32151264 -0.09432529 -0.19008997 -0.20479026 0.1195122 0.058758207
-0.16377324 -0.45749506 -0.3604409 -0.29156572 0.26311973 -0.24247988 0.12658332 0.3882814
-0.005951605 0.47610015 -0.0076008392 -0.015920006 0.012378722 -0.0060000205 -0.024498094 0.004439763
0.11955224 -0.083785534 -0.14179063 -0.24915549 0.12267914 0.20606272 0.29308966 -0.17653248
-0.26631242 0.141095 0.29056332 0.029122677 0.007146028 -0.32919788 0.072223395 -0.037700433
-0.19591227 -0.04402063 0.35152897 -0.21853504 -0.30741096 -0.5581581 0.29628506 -0.08874855
-0.4921584 -0.27587536 -0.09886526 -0.06695224 -0.0281774 0.18445548 0.06235274 0.30365205
0.012481779 0.50782394 -0.011808476 -0.051865596 0.0026879257 0.016890338 0.027174002 0.0042978367
-0.35942438 -0.40389195 -0.4135465 0.28568912 -0.02424374 -0.13564976 0.06202276 -0.016920596
-0.35652727 0.043700624 -0.053976834 -0.05109472 -0.15817289 0.16504014 -0.23480707 -0.23596849
-0.53706455 0.028570991 0.11508424 0.06565093 0.08221831 -0.064853266 0.12721862 0.048420478
-0.3960804 -0.1680547 -0.17650099 0.11418022 0.1497876 0.11524082 -0.2785766 -0.007487372
-0.7931885 -0.1814332 -0.032356918 0.0224032 -0.009387095 0.3420552 -0.023834836 0.031379774
-0.0042601507 0.29780856 -0.2887075 -0.021785092 0.19537105 -0.19939828 -0.1740099 0.07182512
-0.40382767 -0.39045006 -0.025923038 0.11798647 0.108555034 -0.23042583 0.029509384 -0.0042820023

bias f4 [128]
00000000: b368 e93d 27ca 37bd 092e 943e 2b81 88be
00000010: 6921 413e 53aa b5be 027a 94be 408a 2cbf
00000020: aa7f ffbd 04fb 03be cb46 b1be 0827 52be
00000030: e7c9 9f3e 150c a13e d183 c5be 19f4 6fbd
00000040: a6bc 7fbe 07e3 d4be d3e4 7c3d 90f0 e9be
00000050: 7ba4 d13d bc6c 0ebf 1b5b 48be 4c7b 76bd
00000060: dcfb e4be 35eb 80be 5c5b 38be ba81 06be
00000070: 3cca 72bd e755 7dbd 0216 00be 20d5 e83d
00000080: dfed a03e e42b 21be 5c49 1b3f 3bf4 55bd
00000090: b3c5 b63c 57c4 1cbd c1de ddbe 1146 ffbe
000000a0: 8caf ecbe 948c b4be 2244 463e ad73 05be
000000b0: afe2 d5bd a8d7 06bf 28a1 bbbe a48d 973d
000000c0: aed3 db3c b007 08bf 713f e93b 3891 5bbe
000000d0: ca01 e43d ae61 81bb c8a7 a23d 8ca2 d0be
000000e0: 74e4 923d 3b75 cfbd 7db2 f63e 0405 103e
000000f0: bb56 c4bc 7cb2 82bc 7ea2 95be 3ef8 62bd
00000100: fd26 00be 0ea4 2abe 77e4 12be 98ff 6fbe
00000110: ab97 afbe 592a 22be b6db c53d df7f c3bd
00000120: 7c7d d43d 0d10 20bf 3337 89be 8932 c5be
00000130: 3f18 c2bd 1354 06bf d05a 543e 5f47 1d3e
00000140: 957f c93d 7428 e1be 3f94 89be f19c b3be
00000150: a16b f1bd 79ec 0dbd 5201 75bd c5e8 c6be
00000160: fbff a03e fa29 2ebd 250b bb3c d80d 983e
00000170: 16a4 8bbe 5399 4cbe ab51 6a3e 391d f83e
00000180: 64db 85bd 0696 7c3e 58c9 64be 49d0 ebbd
00000190: b9dd 8abd aede e53c cee2 7e3e 88ff 883e
000001a0: e0b5 d83d 1241 d43e a2c8 4ebe 4fef 4ebe
000001b0: 8a52 fbbe a21e 05bf 02fb 94be 9544 08bf
000001c0: b8a9 8e3e a140 cfbe b376 a9be e9d3 8cbd
000001d0: dd32 f6bb fc3e 403d 61ee 2e3e f278 77be
000001e0: 7857 1ebd c81c 9e3b e5cd febe 4ccd 15bd
000001f0: 7b81 c6be 2819 c43d 1b9a bd3d df4b 0cbf
0.11396923 -0.044870522 0.28941372 -0.26661047 0.18860401 -0.3548151 -0.28999335 -0.6739845
-0.12475522 -0.12888724 -0.34624323 -0.20522702 0.31208727 0.3145453 -0.3857713 -0.0585824
-0.24974307 -0.41579458 0.06174166 -0.45691347 0.1023645 -0.55634665 -0.19566004 -0.06017618
-0.44723403 -0.2517945 -0.18003601 -0.13135424 -0.059274897 -0.0618495 -0.12508395 0.11368775
0.3143148 -0.15739399 0.6065881 -0.05223487 0.022311067 -0.03827318 -0.4333401 -0.49858144
-0.46227682 -0.35263503 0.19361928 -0.13032408 -0.10443627 -0.52672815 -0.3664639 0.07400063
0.026834335 -0.5313673 0.0071181585 -0.21442115 0.11133154 -0.003948412 0.07942158 -0.40749013
0.0717248 -0.10129782 0.4818305 0.14064413 -0.023967138 -0.015954249 -0.29225534 -0.055412523
-0.12514873 -0.16664144 -0.14344965 -0.23437345 -0.342954 -0.15836467 0.09661047 -0.09545874
0.10375497 -0.6252449 -0.26799926 -0.38515118 -0.09477281 -0.5247204 0.20737767 0.15359257
0.098387875 -0.43976176 -0.26870915 -0.35080674 -0.11788107 -0.034649346 -0.059815712 -0.38849464
0.31445298 -0.0425205 0.022832463 0.29698062 -0.27273625 -0.19980364 0.22882716 0.48459795
-0.06535986 0.24666604 -0.22342432 -0.115143366 -0.067805715 0.028060284 0.24891207 0.26757455
0.10581565 0.41455895 -0.20193723 -0.20208476 -0.4908641 -0.51999867 -0.29097754 -0.5322965
0.2786386 -0.40478995 -0.33098373 -0.06876356 -0.0075133876 0.046935067 0.17083122 -0.2416723
-0.038657635 0.0048252083 -0.4976646 -0.03657274 -0.3877066 0.09575111 0.09257909 -0.5480327

weight f4 [64, 128]
00000000: 4afe 773d bb12 38be fef5 43bc ac8a 0cbd
00000010: 9e0e 0c3d 3372 7ebe 0729 1bbd 88a2 883d
00000020: 1292 15be ee49 6bbd 8013 40bd 8ccf fdbd
00000030: 37f3 173e dc0e 80bd c9d4 babc 1dd8 343e
00000040: b004 1cbe 052f e73c 8068 2bbd 8a23 8f3c
00000050: 1068 2ebe e708 d93d 702f 103e ee6e a6bd
00000060: 3919 aabc 80aa 2bbe cd20 12ba bbfd f5ba
00000070: 9035 8abd 422a 87be 7975 76bd 7dbe 313c
00000080: 9531 39bd 7af2 24bd dcb9 1dbe 0e8f 47be
00000090: f65a 273d 29d6 d43d 602f 6e3c be94 713d
000000a0: 22c0 9e3e 0bab 883d 8067 fd3c f51b 6cbe
000000b0: 3cb4 58be e903 5bbe 81e0 87bd 9147 88bd
000000c0: 7912 e1bd 303a 973e 7fdf bf3d 1863 66be
000000d0: 3f04 333b 53c3 58be 3fe9 c5bd 3a08 053d
000000e0: 1a81 66bd 1d8e 63bb 3159 84be 8ebb 15be
000000f0: f451 2ebe 2727 24bd a67f 893d 675d 6abe
00000100: fd09 a2bd 7723 233e dfdb bcbd d5d2 cd3d
00000110: 8879 2bbd ed4d 2fbe 5568 243e 226e 09bd
00000120: 0983 1bbe c7aa 183e d7f0 5ebe 3b1c 803e
00000130: 01e9 c73a 173c 43bd 1048 1abd 2d84 46bd
00000140: 8a4b 203d dad4 503d 832a 7bbe 88f3 833b
00000150: 2758 323c c2b0 fa3c 3687 74bd 9501 8abe
00000160: 7556 f03c 24bc 3ebe cd2b 59be 9f79 d4bd
00000170: a9d6 3a3c 3fbd f3bd 3ae2 c7bd 01c8 61bc
00000180: a5f0 2abe a3bd debd 9939 38be 8c6c 963d
00000190: f5c1 393e 3e9b 3fbd 692f 813d e2a5 aabd
000001a0: 03b2 1bbe 5437 8ebd a9ed 89bd fc2f b23c
000001b0: 7da9 9fbb 0ef9 c33d e7dc 4dbd 5ae9 bbbd
000001c0: e610 d53d 9cf7 81be 70e5 e7bd c43e 5dbe
000001d0: 4709 8cbe 6f06 4ebe 4b4c 01be 3fe2 c83b
000001e0: ce14 9e3d 197f 333d 21f8 9cbd 0c8d e3bd
000001f0: 3436 9b3d 2f37 a63d e7f5 8d3d b3c8 433d
00000200: d073 bdbd fa2a ebba 6456 0dbe ef46 40bd
00000210: eb21 fabd 1428 77bd f305 6b3b 19ec 9fbe
00000220: f9d7 073d ad47 c53e 300d 16bc 9bc3 743c
00000230: e4ec 1dbe bf53 7cbd 5e93 f93d e07c ecbc
00000240: 498e 723d 7bc7 dc3d 0a39 873e a9f4 2bbe
00000250: 9ff1 883d 8c1b 463d 3725 71be 9a7f 46bd
00000260: f131 48be 6f70 3ebe b890 41bd ee12 91bd
00000270: d310 05be 2ffd abbd fc50 23be 750c 5fbe
00000280: 8312 87bd 72f8 57bd 0424 a5bd 9de1 61bc
00000290: 50d4 2cbe 32e4 bebd 28e7 56bc d083 00be
000002a0: 55a6 89bd 146d fb3d 0f60 873b 5bb8 c43d
000002b0: b792 663b 2b84 d4bd 312e e8bd ddd5 4cbd
000002c0: b23e 8a3d b669 31be 8e94 20be 48f3 883e
000002d0: 86b6 2fbd a826 9b3a 8f58 05bc 1f0d 92bd
000002e0: b17b 69be 395f 82be aea8 1a3e c7b4 353e
000002f0: ddd0 c6bc 19b9 0a3e 75b8 bebd 34b7 883d
00000300: 7a48 c43c b995 33be 2cbb 043e 56d3 d2bc
00000310: 1b3c f5bc 3a2a 20be 2638 94bd 1490 07be
00000320: 5a10 163f 9d2e 38be 4826 ab3b 83fa a13d
00000330: ccd3 b0bd e7e6 073d 4ec0 e5bd c4af d5bc
00000340: e242 20be 526b 50be 803e c5bd b4a1 69bd
00000350: 10e2 9c3d 98cb 513e d807 e83d b2a7 463d
00000360: 75ac 8fbd 5c49 45be 20d1 14be f441 bdbd
00000370: 0686 08be 5111 c23d c26a 9b3d 5256 543d
00000380: 8b3a 9a3d cfcc 9d3d f99e e43c d23b 53bd
00000390: 6400 1fbe f9ed 91bd 80cf 12bd 20d9 23be
000003a0: 0e4f a0be 7089 d73d a87e 5f3c f814 773c
000003b0: f7ea 85be 13e9 50be 2a56 7cbd fcba db3d
000003c0: f8f7 633a 7154 123c 6725 1b3d 168c aa3d
000003d0: 0257 40bd e723 d33d 2e30 7a3c 2ebc eabd
000003e0: f2fc e03d a026 0b3e 5085 fa3b 7eb9 fb3d
000003f0: 0ea5 94be c0d4 88bc 481e cb3d d73b 04be
0.060545243 -0.17975895 -0.011960505 -0.034311935 0.034193628 -0.24848251 -0.037880924 0.066716254
-0.14606503 -0.05744355 -0.046893597 -0.12393102 0.14838873 -0.06252834 -0.022806542 0.17660566
-0.15236163 0.028220663 -0.041847706 0.017473001 -0.17031884 0.10597401 0.14080596 -0.08126627
-0.02076398 -0.1676426 -0.00055743457 -0.0018767634 -0.067484975 -0.26399428 -0.060170624 0.010848639
-0.0452133 -0.040270306 -0.15402931 -0.19488165 0.04085823 0.1039241 0.014537662 0.058979742
0.3100596 0.06673249 0.030933142 -0.2305754 -0.21162504 -0.2138821 -0.066346176 -0.06654275
-0.109898515 0.2953658 0.093688 -0.22498739 0.0027315763 -0.2116826 -0.09663629 0.03247855
-0.056275465 -0.0034722157 -0.25849298 -0.14622328 -0.1702345 -0.0400764 0.067138 -0.22887193
-0.07912061 0.15931498 -0.092216246 0.10049979 -0.041863948 -0.1711957 0.16055425 -0.033552296
-0.15186705 0.14908896 -0.2177156 0.25021538 0.0015251936 -0.047664728 -0.03766638 -0.048465896
0.03913454 0.05098424 -0.24527936 0.004026834 0.010885275 0.030601863 -0.05969926 -0.26954332
0.0293381 -0.18626457 -0.21208115 -0.1037476 0.011403718 -0.1190133 -0.09759946 -0.013780595
-0.16693361 -0.10876014 -0.17990722 0.073449224 0.18140395 -0.04677891 0.06307871 -0.08332421
-0.15204625 -0.06944147 -0.06734783 0.021751396 -0.0048724995 0.09568988 -0.050259497 -0.09175368
0.10403614 -0.25384223 -0.113230586 -0.21605974 -0.27350828 -0.20119642 -0.1262676 0.0061304863
0.07718812 0.04382238 -0.07664514 -0.11110887 0.07578698 0.08115994 0.06931668 0.047798824
-0.09250605 -0.0017941885 -0.13802487 -0.046942648 -0.122135006 -0.060340956 0.00358617 -0.31234816
0.033164952 0.38531247 -0.009158418 0.014939214 -0.15422398 -0.061603304 0.12186311 -0.028868139
0.059217725 0.107802354 0.26410705 -0.16792549 0.066867106 0.048366114 -0.23549353 -0.048461534
-0.19550301 -0.18597578 -0.047257155 -0.07083689 -0.12994699 -0.083979 -0.15948862 -0.21782096
-0.06595328 -0.05272717 -0.0806351 -0.013786701 -0.16877866 -0.093208686 -0.013116635 -0.12550282
-0.067211784 0.122766644 0.004131324 0.096054755 0.0035182664 -0.103767715 -0.11336935 -0.050008643
0.067502394 -0.17325482 -0.15681669 0.2674811 -0.042898677 0.0011837082 -0.00813879 -0.07131409
-0.22801091 -0.25463274 0.15103409 0.17744742 -0.024269516 0.13547172 -0.09312526 0.06675568
0.02396034 -0.17537583 0.12962025 -0.025735538 -0.029935887 -0.15641108 -0.07237272 -0.13238555
0.586187 -0.17986532 0.0052230693 0.079091094 -0.08634147 0.03317919 -0.1121832 -0.026084788
-0.15650514 -0.2035344 -0.096310616 -0.057038978 0.076603055 0.20487821 0.11329621 0.04849977
-0.070153154 -0.19266266 -0.145329 -0.09241095 -0.13332376 0.09475959 0.07588722 0.051840134
0.075306974 0.0770508 0.027907835 -0.05157072 -0.15527493 -0.07125468 -0.03584242 -0.16000795
-0.31310314 0.10524261 0.013641037 0.015080683 -0.26155826 -0.20401411 -0.06160561 0.10729024
0.0008696313 0.008931265 0.037877467 0.083275005 -0.046957977 0.10309582 0.015270276 -0.11461674
0.109857455 0.13588953 0.0076452866 0.12291239 -0.29032177 -0.01670301 0.09917885 -0.12913452

bias f4 [64]
00000000: e77e 663c e2fa 1dbe 1daa ed3d b9ce ed3d
00000010: b017 af3d 03e7 2fbd f9cc 813d ed60 943d
00000020: b818 d63d b0e7 013d 7f12 4cbe d4b9 21bd
00000030: 3680 f73c 2eb4 6c3d 0bd0 ad3d 709f 203d
00000040: 6a8b 433d 9181 393d 6719 a7bd 6ccd 7abe
00000050: fc65 8c3d fab7 45be b3bb 2abd 4d52 b93d
00000060: 72f5 8b3d 05f0 913d 5229 b4bc 82ec 253d
00000070: 01d2 803d 1339 0abe 4b26 b03c 6b67 cf3d
00000080: b6d1 69bb 3ec7 7d3d 8f82 1c3e 858b ffbd
00000090: 689f 8c3d f3e3 933c 783f 213c 88fc b43d
000000a0: 79c8 c83d 9203 aa3b 82d5 893d 862b c83d
000000b0: 588e 0dbe 2c38 0e3c e39e 983d 506a ac3c
000000c0: 8cf0 1bbe 9ff9 18bd 332c dd3c 7af3 143d
000000d0: d16f 14be 80f5 f4bd 4fdd ffbd fbb2 a03d
000000e0: 148c 3f3d f835 663d 0d1c ea3d cd5c d53d
000000f0: 60bf c23d e650 ac3d c661 b33d ab8f cd3d
0.014068342 -0.15427735 0.11604712 0.11611695 0.0854944 -0.04294492 0.063379236 0.072450496
0.104539335 0.031715095 -0.1992893 -0.03948386 0.030212503 0.05778902 0.08486947 0.03921455
0.047740377 0.04528958 -0.08159142 -0.24492425 0.068553895 -0.19308463 -0.04168291 0.09048901
0.06833924 0.07125858 -0.02199236 0.040508755 0.06290055 -0.13498335 0.021502635 0.10127147
-0.0035677976 0.06195759 0.15284179 -0.12477783 0.06866342 0.01805303 0.009841792 0.08837229
0.09803862 0.005188414 0.067301765 0.097739264 -0.13823831 0.008680385 0.0745218 0.021046788
-0.1522848 -0.037347432 0.026998615 0.03636501 -0.1449578 -0.11960888 -0.12493383 0.07846638
0.04676445 0.056203812 0.114311315 0.10418091 0.09509158 0.08413868 0.08758883 0.10037168

weight f4 [32, 64]
00000000: cda6 71be e5fb a63d 55ed bb3d 8745 673e
00000010: f5bc 8bbd b59f 96be cfdd ca3d cbb7 f8bb
00000020: 4b17 a0bd 556b 173c 91d5 d3bd 10c3 803d
00000030: f447 28be b546 9bbd 68f4 a73d fe65 013e
00000040: 7635 f3bd 0d70 323d de1d 08bd 6675 663e
00000050: ee6e f3bb bcae 30be 2a18 40bc 8524 6c3e
00000060: 2d2b f83d def5 3bbd e3cb c1be da6d c43d
00000070: c393 a9bd 137f cabd e098 8b3d 89a8 c53d
00000080: 5c4d 023e 212b a0bd d8bd 523e f539 7ebe
00000090: dc5e fe3d fae0 28be 5c1b ca3d 2bbe 393e
000000a0: 8d41 ff3d 7eb0 82bd 050b a8bb e6f6 903d
000000b0: 793f 21be 1572 5abe 939f 333e b100 b7bd
000000c0: d7ec d6bd 39a7 10be fb51 f33d cb9e 6cbe
000000d0: b77b f7bd b180 28be dea0 92bc 2185 c93d
000000e0: c876 f43d 31e7 d0bc ff03 6fbe eb97 603e
000000f0: a78d 423e 9dc1 243c bf1a 39be 1cca 773e
00000100: 9ad1 58be f8a0 f53d c9dd 763d 82bc b23d
00000110: 6031 16bd 3ceb 58be 5dcd 873d 1d3f 02bd
00000120: d822 91bd 2ed5 c2bc d145 6ebe a4d2 2abd
00000130: 6684 3fbe 2802 17be 4c24 323e 8e55 ab3d
00000140: 2edf 8f3c 8780 d03d d425 13be f4ae 883d
00000150: 5861 513d e939 7cbe 5c8b 0e3e 90f4 023e
00000160: f013 243e 46e3 50bd 3e2d 5ebe 63ab d23d
00000170: 06f2 9cbe ab30 87be 0513 163d a782 2d3d
00000180: ec85 483d 5af4 abbc 172f 573e d5b5 56be
00000190: a897 923d 6ddc 2dbe 358b 623d 5cdb f53c
000001a0: c694 3d3a 7abb 4abc 283d 943d a802 823e
000001b0: b8e9 91be cc50 2abe d7a7 0e3e 1f1a aabd
000001c0: 4273 76be 784d 30bd 21f4 bfbc 7314 51be
000001d0: 149b 74be 2a89 1ebe 433a da3d 4684 0f3e
000001e0: e028 f63d a053 113c e827 88be f869 3f3e
000001f0: 0c4f 6dbd b3b6 60be 7c33 47be 777b 003e
00000200: e5c3 213e a121 13be 373e 7fbe eef0 24bd
00000210: 4cf3 49be 5d09 e33d 55ee 76be 2736 0a3e
00000220: 26fa 103e 282b a33d 5898 913e fbdd 22bd
00000230: d409 ff3d 4747 fa3d c993 5abe cfc8 24be
00000240: 85f6 37be a01b 61bd bf5e b53e b153 20be
00000250: e4c0 12be 5b5b 3c3e 2562 e4bd f9f4 3fbe
00000260: 333d 69bd 1386 ecbd 6b2b 543e 4bb4 61be
00000270: 18c3 333d 6755 9e3e c379 2abe 2e8d 24be
00000280: 04c3 f2bd 0381 423e 7cd7 00be ad2b cb3e
00000290: dda4 34be e6d8 2e3e 7161 8fbe 6e24 513e
000002a0: 1e42 d2bd f90c 0cbe 8c2a 1bbe 3e89 93bd
000002b0: aa86 cb3e c063 173e 42a1 2dbe 00d3 b93d
000002c0: 219a 723d 51cf 5c3e c2ed efbd 0e3b 35bd
000002d0: 4bd1 823e 02d7 833e 55d6 1dbd 3c56 01be
000002e0: 5e9f edbc a73d 413c ccac 303e 2adf f73c
000002f0: c912 48be 625a ee3d 838a e2bc 51a2 343b
00000300: a1e2 bd3c 85b1 3bbe f428 7abe f6d8 703d
00000310: 97fd c6bd f908 173e d536 4bbe 7a16 a13d
00000320: 21e4 033e d871 c73d 4804 883e 5ac3 efbc
00000330: b407 093e 571c 243e e170 8bbd 6eb3 bdbd
00000340: 66fc 69be 5f38 0f3c c099 903e f37b efbd
00000350: 0ecd c3bd 05c6 7d3e 9307 76be 9766 55be
00000360: 95cf 4dbd 3655 44be c446 473e abcd 2bbe
00000370: 4da6 8b3d 70af 803e 5770 39be 0426 62be
00000380: 68c4 21bd 8fec 583e 39f7 7f3c f54f a73e
00000390: 5f5c 76be 88dc 863e 4141 89be 0cfa 083e
000003a0: 6045 a4bd 007e 29be ceec e5bd fd24 c8bd
000003b0: cb9a c03e 9bc9 463e bff4 b8bd f735 9a3d
000003c0: f9b4 783e c0f3 2e3e 6e4d 91bd 65d1 903d
000003d0: e7e4 933e bf21 313e cda2 1bbe 578d 52be
000003e0: 976d 82bb d985 223d 1584 2d3e 58be 553d
000003f0: 4e7c 78be 4aea 263e c39f a23d 93fc 313c
-0.23598786 0.08153514 0.09176127 0.22585116 -0.0682315 -0.29418722 0.09905588 -0.007590269
-0.07816943 0.009241899 -0.10343469 0.06287205 -0.16433698 -0.07581846 0.08200914 0.12636563
-0.11875431 0.04356389 -0.03323161 0.22505721 -0.0074289953 -0.17254156 -0.011724511 0.23060806
0.1211761 -0.045888774 -0.37850866 0.09591265 -0.082801364 -0.09887519 0.06816268 0.09651286
0.12724823 -0.07820726 0.20580232 -0.24826796 0.12420437 -0.16492072 0.098685 0.1813895
0.12463675 -0.063813195 -0.0051282668 0.07078342 -0.15746869 -0.21332581 0.17541341 -0.08935679
-0.10494392 -0.1412629 0.11880871 -0.2310745 -0.120841436 -0.16455342 -0.017898973 0.098398454
0.11936718 -0.025500866 -0.23341368 0.21932952 0.18999349 0.010055927 -0.18076609 0.24198192
-0.21173707 0.11993593 0.060270105 0.08727361 -0.03666818 -0.21183485 0.06630967 -0.03179847
-0.07086724 -0.023783293 -0.2326882 -0.04170479 -0.1870285 -0.14746916 0.17396659 0.08365928
0.017562475 0.10180765 -0.14369899 0.06673995 0.051118225 -0.24631466 0.13920349 0.12788606
0.1602323 -0.050997995 -0.21696946 0.10286596 -0.306534 -0.26404318 0.036639232 0.042360928
0.048955843 -0.02099054 0.21014057 -0.20967801 0.071578324 -0.16978617 0.05530854 0.030011825
0.0007231947 -0.012373799 0.07238227 0.25392652 -0.28498626 -0.16632384 0.13931213 -0.083057635
-0.24067405 -0.04304263 -0.02343184 -0.20417957 -0.23887283 -0.15482011 0.10655644 0.14015302
0.12019515 0.008870035 -0.26592946 0.18692768 -0.057936713 -0.21944694 -0.19453233 0.12547098
0.15797384 -0.14368297 -0.24926077 -0.04026883 -0.19721717 0.1108577 -0.24114354 0.1349722
0.14157924 0.07967216 0.28436542 -0.03976248 0.124530464 0.12220626 -0.21345438 -0.16092227
-0.17965133 -0.054957986 0.35423848 -0.15656926 -0.14331394 0.18394224 -0.11151532 -0.18745793
-0.05694313 -0.1154901 0.20719688 -0.22041433 0.043887228 0.30924532 -0.16648011 -0.16069481
-0.118536025 0.18994527 -0.12582201 0.3968176 -0.17641015 0.17074928 -0.2800403 0.20424053
-0.10266517 -0.13676824 -0.15152949 -0.07203911 0.39751178 0.14784145 -0.16956046 0.09073448
0.05922902 0.2156346 -0.117152706 -0.044245772 0.25550303 0.25749975 -0.03853448 -0.12630552
-0.029006656 0.011794484 0.17253417 0.03025778 -0.19538416 0.11638333 -0.027653938 0.0027562568
0.023179354 -0.18329437 -0.24429685 0.05880066 -0.09716337 0.14749517 -0.19845136 0.07865615
0.12879993 0.09738511 0.26565766 -0.029267956 0.13381845 0.16026436 -0.06808639 -0.09262739
-0.22850189 0.008741467 0.28242302 -0.11693563 -0.095605955 0.2478257 -0.24026327 -0.20839916
-0.050246794 -0.1917313 0.19460589 -0.16777675 0.06818829 0.25133848 -0.1810926 -0.22084814
-0.03949395 0.2118399 0.015622907 0.3267819 -0.24058674 0.26340127 -0.26807597 0.13376635
-0.08021045 -0.16551971 -0.112268075 -0.0977268 0.37618098 0.19412844 -0.090310566 0.07529824
0.24287786 0.17085171 -0.07094847 0.07071189 0.28885576 0.1729803 -0.15198822 -0.2056173
-0.0039803493 0.03967843 0.16944917 0.05218348 -0.24266168 0.16300312 0.079406284 0.010863441

bias f4 [32]
00000000: f750 cd3c 3857 123e 89a2 1c3e f9cf 3c3e
00000010: 35ac 293e bb5f 083e cb2e c53d 48a2 e53d
00000020: ab61 853d 8e58 2a3e c995 843d 0576 be3d
00000030: 347a a93d 9b2a f23d 0eff f63d f53a 1e3e
00000040: 069f ef3d 28c0 c23d f3f5 133e 66d5 d13d
00000050: b548 193e c445 2c3d ebc8 1f3e 3f9c 253e
00000060: 83bc a53d 5c9c 9d3d 038a 4c3d 8eed a63d
00000070: 0f08 963d 8ab5 1d3e 930b 883d 6b22 133e
0.025063021 0.14291084 0.15296377 0.1843871 0.16569598 0.13317768 0.09628066 0.11212593
0.06512769 0.16635343 0.06473882 0.09299854 0.082752615 0.118245326 0.120603666 0.15452178
0.11700253 0.09509307 0.14449291 0.10245781 0.14969142 0.04205872 0.15603988 0.16172884
0.080925964 0.07695839 0.049936306 0.08150779 0.07325756 0.15401283 0.066428326 0.14368598

weight f4 [1, 32]
00000000: bb44 52be 4b3c 3cbe 3999 be3e ad55 d63e
00000010: 74a2 da3e 1898 c23e 5687 de3e 30ec 64be
00000020: acac 7abe 2181 1d3f 2131 56be 3334 f33e
00000030: 86b6 1abe e68b 20be 3317 3dbe 4a14 fc3e
00000040: 606d 32be c1dd 2bbe 3f18 c53e b603 e13e
00000050: 3f2a 42be 71ac 67be 3301 df3e fa99 ea3e
00000060: 07d7 0fbe 6fa5 12be 5970 20be cf10 12be
00000070: 4997 2ebe 8f8a cd3e d366 12be aac7 0d3f
-0.20534031 -0.18382375 0.37226275 0.4186224 0.42702067 0.38006663 0.43462628 -0.22355723
-0.24479932 0.6152516 -0.20917179 0.47500762 -0.1510869 -0.15678367 -0.18465881 0.4923423
-0.17424536 -0.16783811 0.3849506 0.43948144 -0.18961428 -0.22624375 0.43555602 0.458206
-0.1404687 -0.1432092 -0.15667857 -0.14264224 -0.17049898 0.40144774 -0.14297037 0.5538279
